modelnewacc.tflite (tflite, 627352 bytes, 53 tensors)

tfl.pseudo_qconst1 i1 [4, 1280]
0	0xfe	-2
1	0xdc	-36
2	0xff	-1
3	0xf4	-12
4	0xe0	-32
5	0x02	2
6	0xb4	-76
7	0xc4	-60
8	0x07	7
9	0x3d	61
10	0xc8	-56
11	0xe0	-32
12	0xc1	-63
13	0xef	-17
14	0xf6	-10
15	0x9f	-97
16	0xef	-17
17	0x16	22
18	0x0f	15
19	0x5f	95
20	0x32	50
21	0xe9	-23
22	0xdd	-35
23	0x00	0
24	0xc8	-56
25	0xd5	-43
26	0x01	1
27	0xfe	-2
28	0xff	-1
29	0xc5	-59
30	0x00	0
31	0xdb	-37
32	0x29	41
33	0x09	9
34	0x09	9
35	0xcc	-52
36	0xb4	-76
37	0x23	35
38	0xc3	-61
39	0xe4	-28
40	0xe5	-27
41	0xe6	-26
42	0xed	-19
43	0xd6	-42
44	0x21	33
45	0x21	33
46	0xe5	-27
47	0xe2	-30
48	0x1f	31
49	0xe8	-24
50	0xe1	-31
51	0x30	48
52	0xec	-20
53	0x01	1
54	0xf3	-13
55	0x51	81
56	0x12	18
57	0xb2	-78
58	0xc4	-60
59	0xe5	-27
60	0xe1	-31
61	0x20	32
62	0x02	2
63	0x10	16
64	0x0f	15
65	0xef	-17
66	0xf7	-9
67	0xf4	-12
68	0xce	-50
69	0xe5	-27
70	0x13	19
71	0xee	-18
72	0x12	18
73	0xed	-19
74	0x1a	26
75	0xc1	-63
76	0xff	-1
77	0x2b	43
78	0xd9	-39
79	0x19	25
80	0xe8	-24
81	0x03	3
82	0x0b	11
83	0xe0	-32
84	0x10	16
85	0xf5	-11
86	0xbe	-66
87	0x2c	44
88	0xd9	-39
89	0xed	-19
90	0xfc	-4
91	0xea	-22
92	0xd6	-42
93	0xd2	-46
94	0xc7	-57
95	0xe3	-29
96	0x3f	63
97	0xda	-38
98	0x2b	43
99	0x2c	44
100	0x0e	14
101	0xf7	-9
102	0x24	36
103	0x19	25
104	0xd3	-45
105	0x07	7
106	0x02	2
107	0xce	-50
108	0xf1	-15
109	0xfc	-4
110	0x2a	42
111	0x2b	43
112	0xd0	-48
113	0x04	4
114	0x1a	26
115	0x11	17
116	0xea	-22
117	0x24	36
118	0x10	16
119	0x36	54
120	0x19	25
121	0xf9	-7
122	0x02	2
123	0xfb	-5
124	0xf3	-13
125	0xe5	-27
126	0xd2	-46
127	0x21	33
128	0x23	35
129	0x54	84
130	0x3e	62
131	0x05	5
132	0x47	71
133	0x15	21
134	0xf9	-7
135	0xff	-1
136	0xfd	-3
137	0xef	-17
138	0x2a	42
139	0x1f	31
140	0xff	-1
141	0xf6	-10
142	0xc8	-56
143	0x3a	58
144	0x22	34
145	0xff	-1
146	0xbc	-68
147	0x01	1
148	0x11	17
149	0x07	7
150	0xfc	-4
151	0x2b	43
152	0x00	0
153	0xb6	-74
154	0xf9	-7
155	0xfc	-4
156	0x0e	14
157	0x1a	26
158	0x25	37
159	0x27	39
160	0xb1	-79
161	0xe2	-30
162	0x9e	-98
163	0x39	57
164	0x26	38
165	0x00	0
166	0xd3	-45
167	0x08	8
168	0xff	-1
169	0x30	48
170	0x12	18
171	0xbc	-68
172	0xea	-22
173	0x12	18
174	0xe3	-29
175	0xf5	-11
176	0xf6	-10
177	0xef	-17
178	0x02	2
179	0x18	24
180	0xfd	-3
181	0x3c	60
182	0x32	50
183	0x17	23
184	0x45	69
185	0xf1	-15
186	0x2d	45
187	0xd6	-42
188	0xe7	-25
189	0x01	1
190	0x10	16
191	0xf6	-10
192	0xd5	-43
193	0x02	2
194	0xcf	-49
195	0x2b	43
196	0xcf	-49
197	0x30	48
198	0x2d	45
199	0x1d	29
200	0x16	22
201	0xec	-20
202	0xda	-38
203	0x1e	30
204	0xd0	-48
205	0x04	4
206	0x64	100
207	0xec	-20
208	0xd0	-48
209	0x12	18
210	0x05	5
211	0x09	9
212	0xf1	-15
213	0xef	-17
214	0xd7	-41
215	0xc2	-62
216	0x1a	26
217	0x0e	14
218	0x06	6
219	0x00	0
220	0xfd	-3
221	0x19	25
222	0x1e	30
223	0xd0	-48
224	0x3a	58
225	0xdd	-35
226	0xed	-19
227	0xe6	-26
228	0x0f	15
229	0xb6	-74
230	0x0f	15
231	0x05	5
232	0xea	-22
233	0xf4	-12
234	0xec	-20
235	0xe9	-23
236	0xc7	-57
237	0xf7	-9
238	0xf3	-13
239	0xe9	-23
240	0xea	-22
241	0x41	65
242	0xf8	-8
243	0xfd	-3
244	0x0f	15
245	0xed	-19
246	0x06	6
247	0x2a	42
248	0x33	51
249	0xe3	-29
250	0xf7	-9
251	0xe0	-32
252	0xfc	-4
253	0x05	5
254	0x0b	11
255	0xf8	-8

tfl.pseudo_qconst3 i1 [1280, 1, 1, 112]
0	0x17	23
1	0x4d	77
2	0xf5	-11
3	0x23	35
4	0x1f	31
5	0x06	6
6	0xf9	-7
7	0x2a	42
8	0x4c	76
9	0xe0	-32
10	0x18	24
11	0x29	41
12	0x4b	75
13	0x26	38
14	0xb2	-78
15	0x40	64
16	0xf1	-15
17	0x3e	62
18	0xd1	-47
19	0xf8	-8
20	0x35	53
21	0x15	21
22	0x19	25
23	0xd6	-42
24	0xef	-17
25	0xeb	-21
26	0x12	18
27	0x1a	26
28	0xcd	-51
29	0xb7	-73
30	0xcf	-49
31	0x11	17
32	0xb3	-77
33	0xed	-19
34	0xed	-19
35	0xbd	-67
36	0x81	-127
37	0x0c	12
38	0x29	41
39	0xe6	-26
40	0xe6	-26
41	0x2d	45
42	0xb4	-76
43	0x10	16
44	0xe8	-24
45	0x49	73
46	0xe7	-25
47	0xdb	-37
48	0x0c	12
49	0x40	64
50	0xf9	-7
51	0x78	120
52	0x33	51
53	0x1d	29
54	0xf5	-11
55	0x02	2
56	0x19	25
57	0xef	-17
58	0x13	19
59	0xee	-18
60	0x1c	28
61	0xfa	-6
62	0xea	-22
63	0xfc	-4
64	0xc5	-59
65	0x19	25
66	0xe7	-25
67	0x02	2
68	0xa4	-92
69	0x0d	13
70	0xca	-54
71	0x13	19
72	0x13	19
73	0xee	-18
74	0x2b	43
75	0xb4	-76
76	0x11	17
77	0xf4	-12
78	0xb1	-79
79	0x28	40
80	0x0f	15
81	0xce	-50
82	0x4b	75
83	0xe8	-24
84	0xcb	-53
85	0x82	-126
86	0x1f	31
87	0xed	-19
88	0x0b	11
89	0xb6	-74
90	0xe9	-23
91	0xc7	-57
92	0x34	52
93	0xed	-19
94	0x28	40
95	0x19	25
96	0xd5	-43
97	0x03	3
98	0x19	25
99	0xf7	-9
100	0xcc	-52
101	0xed	-19
102	0xd4	-44
103	0xfe	-2
104	0x2c	44
105	0x08	8
106	0x13	19
107	0xb4	-76
108	0x12	18
109	0xad	-83
110	0x1a	26
111	0xb8	-72
112	0xd0	-48
113	0x7d	125
114	0x05	5
115	0x07	7
116	0x5f	95
117	0x42	66
118	0x2a	42
119	0x06	6
120	0xf8	-8
121	0x0e	14
122	0x1f	31
123	0x38	56
124	0x0d	13
125	0xe2	-30
126	0x16	22
127	0xe9	-23
128	0xfc	-4
129	0x61	97
130	0xf2	-14
131	0x0c	12
132	0x04	4
133	0xc1	-63
134	0x58	88
135	0xf4	-12
136	0x11	17
137	0x45	69
138	0x3f	63
139	0xc9	-55
140	0xd2	-46
141	0x12	18
142	0x15	21
143	0x01	1
144	0x0f	15
145	0xf1	-15
146	0xed	-19
147	0xd3	-45
148	0x27	39
149	0xff	-1
150	0xec	-20
151	0xa5	-91
152	0xd1	-47
153	0x0c	12
154	0x57	87
155	0xeb	-21
156	0xe1	-31
157	0xff	-1
158	0xf4	-12
159	0xf5	-11
160	0x07	7
161	0xd7	-41
162	0x21	33
163	0xaf	-81
164	0x2a	42
165	0xe7	-25
166	0x1c	28
167	0x27	39
168	0x1d	29
169	0x0d	13
170	0xe1	-31
171	0x16	22
172	0x05	5
173	0x04	4
174	0x18	24
175	0xb9	-71
176	0xf1	-15
177	0x18	24
178	0xc4	-60
179	0x28	40
180	0xaf	-81
181	0xf0	-16
182	0xce	-50
183	0x33	51
184	0xc3	-61
185	0x0b	11
186	0xd6	-42
187	0xf3	-13
188	0xfb	-5
189	0xf0	-16
190	0x14	20
191	0x1c	28
192	0xa6	-90
193	0x01	1
194	0x55	85
195	0xfc	-4
196	0x2a	42
197	0x12	18
198	0x07	7
199	0x16	22
200	0x81	-127
201	0xa3	-93
202	0x0d	13
203	0x03	3
204	0x41	65
205	0x07	7
206	0xe0	-32
207	0xd0	-48
208	0x3b	59
209	0x0b	11
210	0x0b	11
211	0xd0	-48
212	0x65	101
213	0x22	34
214	0xc9	-55
215	0x00	0
216	0xdb	-37
217	0xcc	-52
218	0x86	-122
219	0x34	52
220	0x15	21
221	0x10	16
222	0x4f	79
223	0xcd	-51
224	0xf5	-11
225	0xf5	-11
226	0x04	4
227	0xf3	-13
228	0x7f	127
229	0x02	2
230	0xf8	-8
231	0xaf	-81
232	0xfd	-3
233	0x20	32
234	0xf6	-10
235	0x0e	14
236	0xe8	-24
237	0xf6	-10
238	0xb3	-77
239	0xab	-85
240	0x0c	12
241	0xeb	-21
242	0x1b	27
243	0x0f	15
244	0xdd	-35
245	0x4a	74
246	0x0a	10
247	0xf5	-11
248	0x13	19
249	0xd0	-48
250	0xe3	-29
251	0xb6	-74
252	0xc1	-63
253	0xd4	-44
254	0x14	20
255	0xd2	-46

tfl.pseudo_qconst5 i1 [112, 1, 1, 336]
0	0xce	-50
1	0x20	32
2	0xff	-1
3	0x02	2
4	0xaf	-81
5	0x1f	31
6	0xe6	-26
7	0x0e	14
8	0xe3	-29
9	0x01	1
10	0x15	21
11	0xf9	-7
12	0x3d	61
13	0x37	55
14	0xb5	-75
15	0xfb	-5
16	0x04	4
17	0xe5	-27
18	0xd9	-39
19	0xfe	-2
20	0x24	36
21	0xf7	-9
22	0x13	19
23	0xd9	-39
24	0xf6	-10
25	0x01	1
26	0xff	-1
27	0x33	51
28	0xdf	-33
29	0x01	1
30	0x0d	13
31	0xdd	-35
32	0x1b	27
33	0xea	-22
34	0x0c	12
35	0xd0	-48
36	0xf9	-7
37	0xcd	-51
38	0xfe	-2
39	0xdf	-33
40	0x40	64
41	0xd7	-41
42	0x35	53
43	0x37	55
44	0xe4	-28
45	0x14	20
46	0xbd	-67
47	0x29	41
48	0xde	-34
49	0x43	67
50	0xe7	-25
51	0xf4	-12
52	0xd1	-47
53	0xf2	-14
54	0x3f	63
55	0x33	51
56	0x19	25
57	0xd1	-47
58	0x0d	13
59	0x43	67
60	0x15	21
61	0xed	-19
62	0xf0	-16
63	0x15	21
64	0xf7	-9
65	0x10	16
66	0x25	37
67	0xee	-18
68	0x17	23
69	0x0f	15
70	0x00	0
71	0x1d	29
72	0x37	55
73	0x05	5
74	0xee	-18
75	0x09	9
76	0xfe	-2
77	0xcb	-53
78	0xd3	-45
79	0x0c	12
80	0xcd	-51
81	0xf2	-14
82	0xf4	-12
83	0xca	-54
84	0xf6	-10
85	0xe9	-23
86	0x03	3
87	0xe9	-23
88	0x8f	-113
89	0x29	41
90	0x06	6
91	0x0c	12
92	0x06	6
93	0xff	-1
94	0x1b	27
95	0x0d	13
96	0xfd	-3
97	0xe2	-30
98	0xd1	-47
99	0x9c	-100
100	0x26	38
101	0xe9	-23
102	0x27	39
103	0x16	22
104	0x40	64
105	0x21	33
106	0x22	34
107	0xdc	-36
108	0xf4	-12
109	0x1c	28
110	0xef	-17
111	0xc2	-62
112	0x03	3
113	0xbf	-65
114	0x22	34
115	0xb7	-73
116	0x18	24
117	0xb3	-77
118	0xd4	-44
119	0x26	38
120	0xbb	-69
121	0xfe	-2
122	0xe4	-28
123	0x27	39
124	0xf0	-16
125	0xf4	-12
126	0x1d	29
127	0x02	2
128	0xe0	-32
129	0x0d	13
130	0xfe	-2
131	0x06	6
132	0x55	85
133	0xcb	-53
134	0xea	-22
135	0x1d	29
136	0x13	19
137	0xe0	-32
138	0xf0	-16
139	0x0d	13
140	0x3a	58
141	0xe9	-23
142	0xf0	-16
143	0xc7	-57
144	0xd4	-44
145	0x45	69
146	0x08	8
147	0x0a	10
148	0x29	41
149	0x15	21
150	0x1f	31
151	0xb2	-78
152	0x14	20
153	0xfa	-6
154	0x12	18
155	0xc2	-62
156	0xd5	-43
157	0xea	-22
158	0x20	32
159	0x25	37
160	0x50	80
161	0x08	8
162	0xfe	-2
163	0x02	2
164	0xec	-20
165	0x55	85
166	0xe0	-32
167	0xcc	-52
168	0x29	41
169	0x0a	10
170	0xec	-20
171	0x0e	14
172	0xf8	-8
173	0x06	6
174	0x07	7
175	0x45	69
176	0x02	2
177	0xcb	-53
178	0x26	38
179	0x04	4
180	0x16	22
181	0xfd	-3
182	0x26	38
183	0x1d	29
184	0x04	4
185	0x23	35
186	0xf8	-8
187	0xe1	-31
188	0xf8	-8
189	0x26	38
190	0x37	55
191	0xe1	-31
192	0x29	41
193	0x1f	31
194	0xff	-1
195	0x06	6
196	0xfe	-2
197	0xca	-54
198	0x2a	42
199	0x09	9
200	0xe7	-25
201	0x17	23
202	0x12	18
203	0x25	37
204	0xff	-1
205	0x9e	-98
206	0xdc	-36
207	0x02	2
208	0x01	1
209	0xf1	-15
210	0xf1	-15
211	0x33	51
212	0xcb	-53
213	0x1d	29
214	0xff	-1
215	0xdf	-33
216	0xd9	-39
217	0x02	2
218	0x09	9
219	0xf8	-8
220	0xf6	-10
221	0xe9	-23
222	0x22	34
223	0x0a	10
224	0x11	17
225	0xe1	-31
226	0xf8	-8
227	0x18	24
228	0xf5	-11
229	0x00	0
230	0xf7	-9
231	0xf1	-15
232	0xed	-19
233	0xc2	-62
234	0xdc	-36
235	0x0f	15
236	0x33	51
237	0x12	18
238	0x1f	31
239	0xcc	-52
240	0x20	32
241	0x2e	46
242	0x12	18
243	0xe2	-30
244	0x45	69
245	0x02	2
246	0xcf	-49
247	0x06	6
248	0x0f	15
249	0x02	2
250	0xe9	-23
251	0xcb	-53
252	0x1e	30
253	0x05	5
254	0xf6	-10
255	0x10	16

tfl.pseudo_qconst7 i1 [1, 3, 3, 336]
0	0x57	87
1	0x69	105
2	0x5e	94
3	0x5a	90
4	0x5a	90
5	0x53	83
6	0x5b	91
7	0x63	99
8	0x63	99
9	0x42	66
10	0x47	71
11	0x43	67
12	0x60	96
13	0x4e	78
14	0x4c	76
15	0x68	104
16	0x5b	91
17	0x36	54
18	0x57	87
19	0x61	97
20	0xc5	-59
21	0x69	105
22	0xa4	-92
23	0x58	88
24	0xa7	-89
25	0x5a	90
26	0xcf	-49
27	0x9f	-97
28	0x9d	-99
29	0x84	-124
30	0xc4	-60
31	0x3d	61
32	0x17	23
33	0x63	99
34	0xbe	-66
35	0x56	86
36	0x65	101
37	0x81	-127
38	0x6a	106
39	0x52	82
40	0x3e	62
41	0xcc	-52
42	0x3a	58
43	0x48	72
44	0x7f	127
45	0x51	81
46	0x58	88
47	0x53	83
48	0xb9	-71
49	0x56	86
50	0x90	-112
51	0x24	36
52	0x81	-127
53	0x56	86
54	0xa8	-88
55	0x4e	78
56	0xf1	-15
57	0xbd	-67
58	0xb3	-77
59	0x79	121
60	0x55	85
61	0xc6	-58
62	0x5b	91
63	0x5d	93
64	0x6a	106
65	0xfe	-2
66	0x95	-107
67	0x34	52
68	0x56	86
69	0x45	69
70	0x58	88
71	0x56	86
72	0x4e	78
73	0xfc	-4
74	0x5e	94
75	0xa1	-95
76	0x61	97
77	0x3d	61
78	0xb2	-78
79	0xa4	-92
80	0xa8	-88
81	0x57	87
82	0x4d	77
83	0x37	55
84	0x9e	-98
85	0xca	-54
86	0x2d	45
87	0x81	-127
88	0x43	67
89	0x45	69
90	0xa8	-88
91	0x57	87
92	0x65	101
93	0xa7	-89
94	0xb4	-76
95	0x5d	93
96	0x5f	95
97	0x81	-127
98	0x66	102
99	0x2a	42
100	0x66	102
101	0xcc	-52
102	0x6e	110
103	0x03	3
104	0x6b	107
105	0x54	84
106	0x56	86
107	0x42	66
108	0x5d	93
109	0xb3	-77
110	0xc7	-57
111	0xa0	-96
112	0x28	40
113	0x58	88
114	0xb6	-74
115	0x9e	-98
116	0x43	67
117	0x55	85
118	0xce	-50
119	0xe3	-29
120	0x40	64
121	0x40	64
122	0x31	49
123	0x5f	95
124	0xc3	-61
125	0xa3	-93
126	0x42	66
127	0x1a	26
128	0xea	-22
129	0x7f	127
130	0x71	113
131	0xcd	-51
132	0x23	35
133	0xb3	-77
134	0x5b	91
135	0xca	-54
136	0x22	34
137	0x1b	27
138	0x64	100
139	0x0d	13
140	0x94	-108
141	0xa5	-91
142	0x52	82
143	0xce	-50
144	0xad	-83
145	0x52	82
146	0x53	83
147	0x96	-106
148	0x40	64
149	0x7f	127
150	0x64	100
151	0x47	71
152	0x62	98
153	0xbb	-69
154	0x9c	-100
155	0x57	87
156	0xa8	-88
157	0xa0	-96
158	0x3c	60
159	0x5a	90
160	0x93	-109
161	0x4f	79
162	0x33	51
163	0x5e	94
164	0x5b	91
165	0xa7	-89
166	0x59	89
167	0x55	85
168	0x90	-112
169	0x5c	92
170	0x8f	-113
171	0x81	-127
172	0x40	64
173	0xb5	-75
174	0xd3	-45
175	0xb6	-74
176	0xe7	-25
177	0x20	32
178	0x4c	76
179	0x4f	79
180	0x3f	63
181	0x9b	-101
182	0x7c	124
183	0xf1	-15
184	0x57	87
185	0x9b	-101
186	0x53	83
187	0x66	102
188	0xaf	-81
189	0x5b	91
190	0x95	-107
191	0xfc	-4
192	0xc7	-57
193	0xbf	-65
194	0x4a	74
195	0xaf	-81
196	0x4d	77
197	0x7a	122
198	0xa2	-94
199	0x48	72
200	0x4b	75
201	0x6d	109
202	0x64	100
203	0x3d	61
204	0xac	-84
205	0xa9	-87
206	0x58	88
207	0x5b	91
208	0xfc	-4
209	0x9e	-98
210	0xa5	-91
211	0x52	82
212	0x55	85
213	0x81	-127
214	0x5d	93
215	0x9d	-99
216	0xd6	-42
217	0x4f	79
218	0xd4	-44
219	0x93	-109
220	0x5f	95
221	0x5d	93
222	0xbe	-66
223	0xc5	-59
224	0x5c	92
225	0x48	72
226	0x7e	126
227	0x47	71
228	0x3d	61
229	0xc1	-63
230	0x28	40
231	0x47	71
232	0xa7	-89
233	0x57	87
234	0x0f	15
235	0xaa	-86
236	0x4c	76
237	0x9f	-97
238	0x4d	77
239	0xf3	-13
240	0x46	70
241	0x75	117
242	0x9e	-98
243	0xd2	-46
244	0x17	23
245	0xc8	-56
246	0x4d	77
247	0x37	55
248	0x5c	92
249	0xd3	-45
250	0x3e	62
251	0x9a	-102
252	0x4b	75
253	0x2f	47
254	0x41	65
255	0xa4	-92

tfl.pseudo_qconst9 i1 [336, 1, 1, 56]
0	0xa0	-96
1	0x45	69
2	0xb7	-73
3	0xd7	-41
4	0x15	21
5	0xe4	-28
6	0x50	80
7	0xf7	-9
8	0xb8	-72
9	0x1d	29
10	0x04	4
11	0x78	120
12	0xe6	-26
13	0x05	5
14	0x28	40
15	0x20	32
16	0xce	-50
17	0x29	41
18	0xe4	-28
19	0x11	17
20	0xce	-50
21	0x7f	127
22	0xea	-22
23	0x2c	44
24	0x09	9
25	0xed	-19
26	0x4c	76
27	0xf3	-13
28	0xf4	-12
29	0xaf	-81
30	0xea	-22
31	0xff	-1
32	0x26	38
33	0x07	7
34	0x1e	30
35	0x23	35
36	0xc5	-59
37	0xd9	-39
38	0xe2	-30
39	0xe5	-27
40	0x71	113
41	0x32	50
42	0x21	33
43	0xe2	-30
44	0x2e	46
45	0xfd	-3
46	0x0e	14
47	0x57	87
48	0xf5	-11
49	0xc0	-64
50	0xf4	-12
51	0x5c	92
52	0x51	81
53	0x2c	44
54	0x20	32
55	0x1a	26
56	0xf9	-7
57	0xe5	-27
58	0x06	6
59	0xc7	-57
60	0x08	8
61	0xec	-20
62	0x1b	27
63	0x35	53
64	0xa5	-91
65	0x21	33
66	0xe3	-29
67	0x1a	26
68	0x17	23
69	0x03	3
70	0x0b	11
71	0xdf	-33
72	0xcb	-53
73	0xd9	-39
74	0x0c	12
75	0x1d	29
76	0xa7	-89
77	0xfd	-3
78	0x08	8
79	0x29	41
80	0x0a	10
81	0x28	40
82	0xef	-17
83	0xd4	-44
84	0x4d	77
85	0x5d	93
86	0x5e	94
87	0xf7	-9
88	0xe9	-23
89	0x1d	29
90	0x13	19
91	0x1c	28
92	0x1c	28
93	0x9d	-99
94	0xfb	-5
95	0x41	65
96	0x0a	10
97	0x0f	15
98	0x2d	45
99	0x0a	10
100	0x8d	-115
101	0xf0	-16
102	0xd3	-45
103	0x2e	46
104	0x7f	127
105	0x3a	58
106	0xf0	-16
107	0xf9	-7
108	0x0c	12
109	0xea	-22
110	0x2f	47
111	0x34	52
112	0xcc	-52
113	0xd7	-41
114	0x06	6
115	0xc9	-55
116	0xba	-70
117	0xb1	-79
118	0xce	-50
119	0xf7	-9
120	0xfa	-6
121	0x2a	42
122	0x51	81
123	0xb8	-72
124	0x21	33
125	0x32	50
126	0x5a	90
127	0x5d	93
128	0x07	7
129	0xdd	-35
130	0xde	-34
131	0xc5	-59
132	0xe2	-30
133	0x50	80
134	0x08	8
135	0x0d	13
136	0x01	1
137	0x03	3
138	0x52	82
139	0x05	5
140	0x17	23
141	0xdf	-33
142	0xf7	-9
143	0xbb	-69
144	0xa9	-87
145	0x06	6
146	0xf6	-10
147	0xef	-17
148	0x3a	58
149	0xbc	-68
150	0xce	-50
151	0x00	0
152	0x05	5
153	0x48	72
154	0x05	5
155	0xe7	-25
156	0xf7	-9
157	0xbe	-66
158	0xce	-50
159	0x1e	30
160	0x81	-127
161	0x2c	44
162	0xbb	-69
163	0x47	71
164	0xba	-70
165	0x20	32
166	0x2d	45
167	0x49	73
168	0xf0	-16
169	0x3b	59
170	0xee	-18
171	0xd6	-42
172	0x0f	15
173	0xf7	-9
174	0xfa	-6
175	0x07	7
176	0x6d	109
177	0x2b	43
178	0xe6	-26
179	0x3f	63
180	0xd6	-42
181	0xef	-17
182	0xfc	-4
183	0xb6	-74
184	0xfd	-3
185	0x20	32
186	0x38	56
187	0x19	25
188	0xd3	-45
189	0xd6	-42
190	0xef	-17
191	0x44	68
192	0x06	6
193	0xd4	-44
194	0xdf	-33
195	0x0a	10
196	0xde	-34
197	0xd7	-41
198	0xfe	-2
199	0xf2	-14
200	0x16	22
201	0x2f	47
202	0x38	56
203	0xc1	-63
204	0xc8	-56
205	0x5e	94
206	0x8b	-117
207	0xb2	-78
208	0x17	23
209	0xb4	-76
210	0x93	-109
211	0xdd	-35
212	0x42	66
213	0x68	104
214	0xe1	-31
215	0x78	120
216	0x6d	109
217	0x4d	77
218	0xfa	-6
219	0x0a	10
220	0x9b	-101
221	0xc2	-62
222	0x81	-127
223	0xa5	-91
224	0xe2	-30
225	0xf2	-14
226	0x7f	127
227	0xeb	-21
228	0x17	23
229	0x00	0
230	0xe5	-27
231	0x1f	31
232	0xde	-34
233	0x39	57
234	0xf7	-9
235	0xba	-70
236	0x1a	26
237	0x3e	62
238	0x15	21
239	0xe3	-29
240	0xe5	-27
241	0xc2	-62
242	0x35	53
243	0x2c	44
244	0x3d	61
245	0x13	19
246	0xf0	-16
247	0x00	0
248	0xea	-22
249	0xe3	-29
250	0x3f	63
251	0xd2	-46
252	0x1a	26
253	0x3c	60
254	0x31	49
255	0x20	32

tfl.pseudo_qconst11 i1 [56, 1, 1, 336]
0	0x0e	14
1	0x1c	28
2	0x0c	12
3	0x05	5
4	0xfa	-6
5	0x02	2
6	0xfb	-5
7	0x00	0
8	0x0d	13
9	0x01	1
10	0xf4	-12
11	0xf5	-11
12	0xf9	-7
13	0x06	6
14	0x0d	13
15	0xf5	-11
16	0x0c	12
17	0x0d	13
18	0xee	-18
19	0xf2	-14
20	0xf6	-10
21	0x12	18
22	0xf5	-11
23	0xdf	-33
24	0x21	33
25	0x09	9
26	0x0c	12
27	0xf3	-13
28	0x2e	46
29	0x0c	12
30	0xcc	-52
31	0x00	0
32	0x1e	30
33	0xfc	-4
34	0x10	16
35	0xf4	-12
36	0x0f	15
37	0x0e	14
38	0x04	4
39	0xf5	-11
40	0x1c	28
41	0xf1	-15
42	0x22	34
43	0xfa	-6
44	0x06	6
45	0x14	20
46	0x0d	13
47	0xf9	-7
48	0x02	2
49	0x0a	10
50	0x00	0
51	0xff	-1
52	0xe4	-28
53	0x23	35
54	0x17	23
55	0xdd	-35
56	0xeb	-21
57	0x19	25
58	0xfe	-2
59	0x01	1
60	0x24	36
61	0x35	53
62	0xfc	-4
63	0xff	-1
64	0xfd	-3
65	0x02	2
66	0xfd	-3
67	0x08	8
68	0x08	8
69	0xd9	-39
70	0xe4	-28
71	0xf1	-15
72	0x16	22
73	0x26	38
74	0x02	2
75	0x81	-127
76	0x04	4
77	0x06	6
78	0xfb	-5
79	0x22	34
80	0x0d	13
81	0x07	7
82	0xf4	-12
83	0xf1	-15
84	0x18	24
85	0x11	17
86	0x12	18
87	0x1f	31
88	0xfe	-2
89	0x14	20
90	0xf6	-10
91	0xf7	-9
92	0x13	19
93	0x09	9
94	0x16	22
95	0x02	2
96	0xf7	-9
97	0xf0	-16
98	0x16	22
99	0x12	18
100	0x0b	11
101	0x03	3
102	0x04	4
103	0x16	22
104	0xe7	-25
105	0xf0	-16
106	0xfb	-5
107	0x07	7
108	0xfa	-6
109	0x07	7
110	0x08	8
111	0xfb	-5
112	0xdb	-37
113	0xe2	-30
114	0x04	4
115	0x0a	10
116	0x03	3
117	0x1f	31
118	0xed	-19
119	0xc2	-62
120	0xe7	-25
121	0xfb	-5
122	0x20	32
123	0x10	16
124	0xf3	-13
125	0x00	0
126	0xfa	-6
127	0x19	25
128	0x08	8
129	0xf6	-10
130	0xf1	-15
131	0xf7	-9
132	0x2d	45
133	0x0a	10
134	0x0f	15
135	0x01	1
136	0x07	7
137	0xf3	-13
138	0x08	8
139	0x3e	62
140	0xfa	-6
141	0x15	21
142	0x19	25
143	0x10	16
144	0xf8	-8
145	0x10	16
146	0x0e	14
147	0x0e	14
148	0xe9	-23
149	0x04	4
150	0xeb	-21
151	0xeb	-21
152	0x14	20
153	0x08	8
154	0xe3	-29
155	0x0f	15
156	0x21	33
157	0xf3	-13
158	0x04	4
159	0x03	3
160	0xf8	-8
161	0xf0	-16
162	0x37	55
163	0x0f	15
164	0x0c	12
165	0x07	7
166	0x22	34
167	0x16	22
168	0xfb	-5
169	0x00	0
170	0xf9	-7
171	0x13	19
172	0x06	6
173	0x0b	11
174	0x0f	15
175	0xeb	-21
176	0x0b	11
177	0xf5	-11
178	0xff	-1
179	0x05	5
180	0x06	6
181	0xf9	-7
182	0x0e	14
183	0x1b	27
184	0xfe	-2
185	0x1d	29
186	0xfc	-4
187	0xe1	-31
188	0x0c	12
189	0x0b	11
190	0xfb	-5
191	0xfa	-6
192	0x0b	11
193	0x05	5
194	0xf5	-11
195	0xe8	-24
196	0x04	4
197	0x1f	31
198	0x04	4
199	0x0c	12
200	0x05	5
201	0xf9	-7
202	0x16	22
203	0x2c	44
204	0x1e	30
205	0x1c	28
206	0x22	34
207	0xfb	-5
208	0x04	4
209	0x17	23
210	0x16	22
211	0x11	17
212	0x09	9
213	0x0d	13
214	0x08	8
215	0x19	25
216	0xd4	-44
217	0xf4	-12
218	0x0e	14
219	0x04	4
220	0x0b	11
221	0x05	5
222	0x07	7
223	0x37	55
224	0xcf	-49
225	0x0f	15
226	0x10	16
227	0xfc	-4
228	0x00	0
229	0x09	9
230	0xf7	-9
231	0x1c	28
232	0xff	-1
233	0xf7	-9
234	0xfd	-3
235	0x1d	29
236	0xf5	-11
237	0x06	6
238	0xdf	-33
239	0x10	16
240	0x1b	27
241	0x13	19
242	0xfe	-2
243	0xff	-1
244	0xfc	-4
245	0x13	19
246	0x1d	29
247	0xfd	-3
248	0x12	18
249	0xfd	-3
250	0x33	51
251	0xfc	-4
252	0x14	20
253	0x05	5
254	0xf3	-13
255	0xf8	-8

tfl.pseudo_qconst13 i1 [1, 3, 3, 336]
0	0xfc	-4
1	0x12	18
2	0x61	97
3	0x0b	11
4	0xca	-54
5	0x17	23
6	0xe1	-31
7	0x2c	44
8	0x25	37
9	0x1c	28
10	0x11	17
11	0xc1	-63
12	0x0b	11
13	0xf2	-14
14	0xf4	-12
15	0x07	7
16	0x21	33
17	0xdf	-33
18	0xe8	-24
19	0xf1	-15
20	0x13	19
21	0xde	-34
22	0xfe	-2
23	0x01	1
24	0x8d	-115
25	0xda	-38
26	0x1f	31
27	0x4a	74
28	0x21	33
29	0x22	34
30	0xfb	-5
31	0xdc	-36
32	0xc2	-62
33	0xf8	-8
34	0x28	40
35	0xdb	-37
36	0x45	69
37	0x4e	78
38	0x10	16
39	0x0f	15
40	0xfa	-6
41	0x35	53
42	0x0a	10
43	0xda	-38
44	0xc6	-58
45	0x00	0
46	0x06	6
47	0x26	38
48	0x73	115
49	0xf5	-11
50	0x1d	29
51	0xef	-17
52	0x0e	14
53	0x4d	77
54	0x7c	124
55	0xe2	-30
56	0x00	0
57	0x0b	11
58	0x25	37
59	0xf4	-12
60	0xa3	-93
61	0x29	41
62	0x11	17
63	0x81	-127
64	0x1f	31
65	0xff	-1
66	0x32	50
67	0x2e	46
68	0x21	33
69	0x0a	10
70	0xf4	-12
71	0xe4	-28
72	0xb5	-75
73	0xfa	-6
74	0x06	6
75	0xe2	-30
76	0xde	-34
77	0x1f	31
78	0x7f	127
79	0x20	32
80	0x05	5
81	0xd1	-47
82	0x23	35
83	0xe7	-25
84	0xeb	-21
85	0x1b	27
86	0x12	18
87	0xa5	-91
88	0x29	41
89	0x06	6
90	0xed	-19
91	0xdc	-36
92	0xfc	-4
93	0xa0	-96
94	0xf9	-7
95	0x2f	47
96	0xa6	-90
97	0xfe	-2
98	0x0f	15
99	0xe4	-28
100	0x34	52
101	0xc9	-55
102	0x30	48
103	0x01	1
104	0x0a	10
105	0x22	34
106	0x1d	29
107	0xd7	-41
108	0xdf	-33
109	0xea	-22
110	0x19	25
111	0xdb	-37
112	0xde	-34
113	0x7f	127
114	0xd8	-40
115	0xfd	-3
116	0x09	9
117	0x57	87
118	0x09	9
119	0xcf	-49
120	0x17	23
121	0x78	120
122	0x51	81
123	0xfd	-3
124	0x0e	14
125	0x05	5
126	0x76	118
127	0x09	9
128	0x0f	15
129	0xfc	-4
130	0x23	35
131	0x0b	11
132	0xf9	-7
133	0x04	4
134	0xc3	-61
135	0x13	19
136	0xe7	-25
137	0xf0	-16
138	0x0a	10
139	0x11	17
140	0xe0	-32
141	0x17	23
142	0xd8	-40
143	0x1e	30
144	0xc1	-63
145	0x07	7
146	0xfe	-2
147	0x50	80
148	0xf9	-7
149	0x1b	27
150	0x1b	27
151	0xfe	-2
152	0xd3	-45
153	0x1b	27
154	0xac	-84
155	0xf6	-10
156	0xe2	-30
157	0x23	35
158	0x3e	62
159	0x21	33
160	0xf3	-13
161	0x1a	26
162	0x26	38
163	0xb7	-73
164	0x0c	12
165	0x61	97
166	0x2b	43
167	0x04	4
168	0x07	7
169	0xfb	-5
170	0xf8	-8
171	0x07	7
172	0x84	-124
173	0x07	7
174	0xa9	-87
175	0x4a	74
176	0x0e	14
177	0x1d	29
178	0x02	2
179	0x12	18
180	0xff	-1
181	0xd1	-47
182	0x08	8
183	0x07	7
184	0xe7	-25
185	0x18	24
186	0x1d	29
187	0xed	-19
188	0xdc	-36
189	0x17	23
190	0xdf	-33
191	0x52	82
192	0x3c	60
193	0x18	24
194	0x0c	12
195	0xec	-20
196	0xce	-50
197	0x43	67
198	0x02	2
199	0xfe	-2
200	0x01	1
201	0x30	48
202	0xfd	-3
203	0x6d	109
204	0x25	37
205	0x10	16
206	0xc7	-57
207	0xac	-84
208	0x1f	31
209	0x4f	79
210	0x7f	127
211	0x3d	61
212	0x0d	13
213	0xf1	-15
214	0xf6	-10
215	0xb4	-76
216	0x02	2
217	0x06	6
218	0x1c	28
219	0xf2	-14
220	0xdf	-33
221	0x6b	107
222	0x1e	30
223	0x49	73
224	0x15	21
225	0x0b	11
226	0x15	21
227	0x04	4
228	0x25	37
229	0xc1	-63
230	0x88	-120
231	0x0f	15
232	0xde	-34
233	0x22	34
234	0x1f	31
235	0xf1	-15
236	0x0f	15
237	0x3e	62
238	0xd3	-45
239	0x20	32
240	0x0b	11
241	0x14	20
242	0x4d	77
243	0x10	16
244	0xd6	-42
245	0xe1	-31
246	0xe9	-23
247	0x28	40
248	0xb7	-73
249	0xdf	-33
250	0x25	37
251	0xa7	-89
252	0x0c	12
253	0x0a	10
254	0xce	-50
255	0xe1	-31

tfl.pseudo_qconst15 i1 [336, 1, 1, 56]
0	0x98	-104
1	0x31	49
2	0x0e	14
3	0x13	19
4	0xe5	-27
5	0xd2	-46
6	0xdd	-35
7	0x14	20
8	0xfb	-5
9	0xd3	-45
10	0x52	82
11	0xdf	-33
12	0xe8	-24
13	0xd6	-42
14	0xb6	-74
15	0x23	35
16	0x05	5
17	0xf9	-7
18	0xd8	-40
19	0xf7	-9
20	0x08	8
21	0x26	38
22	0x28	40
23	0xf4	-12
24	0xf7	-9
25	0xba	-70
26	0x3e	62
27	0xd5	-43
28	0x2f	47
29	0x4f	79
30	0x14	20
31	0xfe	-2
32	0xc1	-63
33	0xf9	-7
34	0xf7	-9
35	0xff	-1
36	0x1a	26
37	0x10	16
38	0xcc	-52
39	0x30	48
40	0x15	21
41	0xda	-38
42	0xf6	-10
43	0xc8	-56
44	0x22	34
45	0x3b	59
46	0x7f	127
47	0x02	2
48	0x5b	91
49	0xc8	-56
50	0xd8	-40
51	0xb5	-75
52	0xdb	-37
53	0x26	38
54	0xc3	-61
55	0xbe	-66
56	0xde	-34
57	0xd7	-41
58	0x09	9
59	0x33	51
60	0x1c	28
61	0x1b	27
62	0xe3	-29
63	0x1c	28
64	0xf4	-12
65	0xe9	-23
66	0x43	67
67	0xfb	-5
68	0xd8	-40
69	0x03	3
70	0x1b	27
71	0xfb	-5
72	0x25	37
73	0xbd	-67
74	0x35	53
75	0x04	4
76	0xe0	-32
77	0x86	-122
78	0x3c	60
79	0x19	25
80	0x61	97
81	0x05	5
82	0x23	35
83	0xb9	-71
84	0x2c	44
85	0x4d	77
86	0x04	4
87	0xd7	-41
88	0xaa	-86
89	0xcb	-53
90	0xd2	-46
91	0x0e	14
92	0x8a	-118
93	0x81	-127
94	0x19	25
95	0x41	65
96	0xf6	-10
97	0x16	22
98	0xf3	-13
99	0x68	104
100	0xdb	-37
101	0xd0	-48
102	0x51	81
103	0xc2	-62
104	0x20	32
105	0x18	24
106	0xd0	-48
107	0xe1	-31
108	0xf8	-8
109	0xd5	-43
110	0x17	23
111	0x47	71
112	0xeb	-21
113	0x33	51
114	0xc7	-57
115	0x2a	42
116	0xfc	-4
117	0x13	19
118	0x81	-127
119	0x34	52
120	0x3e	62
121	0x17	23
122	0x0a	10
123	0x12	18
124	0xe6	-26
125	0xd8	-40
126	0xba	-70
127	0xd4	-44
128	0xb9	-71
129	0xc7	-57
130	0x13	19
131	0x1d	29
132	0x6c	108
133	0xc7	-57
134	0xf8	-8
135	0xd2	-46
136	0xed	-19
137	0xbf	-65
138	0x1e	30
139	0xf1	-15
140	0xe9	-23
141	0x20	32
142	0xee	-18
143	0xf3	-13
144	0xda	-38
145	0xe8	-24
146	0x08	8
147	0x15	21
148	0x16	22
149	0x41	65
150	0xc8	-56
151	0xf7	-9
152	0xe5	-27
153	0xf7	-9
154	0x03	3
155	0xfc	-4
156	0x4a	74
157	0x1d	29
158	0xdc	-36
159	0x33	51
160	0xed	-19
161	0xe8	-24
162	0xac	-84
163	0x97	-105
164	0x51	81
165	0x23	35
166	0x2d	45
167	0xcb	-53
168	0xf3	-13
169	0x36	54
170	0x34	52
171	0xd9	-39
172	0xe1	-31
173	0xba	-70
174	0x48	72
175	0xce	-50
176	0x7f	127
177	0x72	114
178	0x98	-104
179	0xc2	-62
180	0xde	-34
181	0x1d	29
182	0x2f	47
183	0xfb	-5
184	0xc6	-58
185	0x5d	93
186	0x04	4
187	0xb8	-72
188	0x29	41
189	0xd6	-42
190	0x2e	46
191	0x58	88
192	0x5d	93
193	0x00	0
194	0xab	-85
195	0x22	34
196	0xfc	-4
197	0xda	-38
198	0x14	20
199	0x0a	10
200	0x09	9
201	0xe4	-28
202	0xdb	-37
203	0x3e	62
204	0xda	-38
205	0x1a	26
206	0xed	-19
207	0x0d	13
208	0x3e	62
209	0xdf	-33
210	0x01	1
211	0x00	0
212	0xea	-22
213	0xf3	-13
214	0xd6	-42
215	0xf7	-9
216	0x20	32
217	0xee	-18
218	0xa3	-93
219	0x05	5
220	0x05	5
221	0x2c	44
222	0x0e	14
223	0x17	23
224	0x3a	58
225	0x72	114
226	0x12	18
227	0xbd	-67
228	0xe8	-24
229	0x25	37
230	0xec	-20
231	0x37	55
232	0x2a	42
233	0x17	23
234	0xe8	-24
235	0xba	-70
236	0x31	49
237	0x06	6
238	0x40	64
239	0xf6	-10
240	0x26	38
241	0xf1	-15
242	0xcc	-52
243	0x2c	44
244	0xcc	-52
245	0xe5	-27
246	0x16	22
247	0xdf	-33
248	0x58	88
249	0x02	2
250	0xf4	-12
251	0x0a	10
252	0xee	-18
253	0x23	35
254	0xfd	-3
255	0xee	-18

tfl.pseudo_qconst17 i1 [56, 1, 1, 336]
0	0xee	-18
1	0xfb	-5
2	0xf9	-7
3	0x31	49
4	0x0d	13
5	0xbb	-69
6	0x10	16
7	0xf8	-8
8	0x26	38
9	0xf7	-9
10	0x07	7
11	0x1e	30
12	0x10	16
13	0x0f	15
14	0x02	2
15	0x16	22
16	0x23	35
17	0x11	17
18	0xf1	-15
19	0xfa	-6
20	0x11	17
21	0x02	2
22	0xfd	-3
23	0x81	-127
24	0xf4	-12
25	0x01	1
26	0x06	6
27	0x09	9
28	0x22	34
29	0x04	4
30	0xf3	-13
31	0x0e	14
32	0x0e	14
33	0xe3	-29
34	0x2f	47
35	0x07	7
36	0x2b	43
37	0x22	34
38	0x18	24
39	0xdf	-33
40	0x18	24
41	0x3e	62
42	0xf7	-9
43	0x15	21
44	0x19	25
45	0x0c	12
46	0xf3	-13
47	0xfa	-6
48	0xd6	-42
49	0x06	6
50	0x0a	10
51	0x1f	31
52	0x14	20
53	0x02	2
54	0xe6	-26
55	0xfd	-3
56	0x11	17
57	0x01	1
58	0xfa	-6
59	0x1a	26
60	0x10	16
61	0x5f	95
62	0x14	20
63	0xf4	-12
64	0xf7	-9
65	0x03	3
66	0x32	50
67	0x36	54
68	0x48	72
69	0x2d	45
70	0x03	3
71	0x08	8
72	0x04	4
73	0xf0	-16
74	0x44	68
75	0xef	-17
76	0x13	19
77	0x28	40
78	0x0a	10
79	0x20	32
80	0x18	24
81	0x19	25
82	0x45	69
83	0x39	57
84	0x28	40
85	0xe2	-30
86	0xf1	-15
87	0x07	7
88	0x09	9
89	0x2f	47
90	0x02	2
91	0x06	6
92	0xd5	-43
93	0x1f	31
94	0xe5	-27
95	0xf5	-11
96	0xd1	-47
97	0xed	-19
98	0x07	7
99	0xdf	-33
100	0x1f	31
101	0xf2	-14
102	0x1b	27
103	0x15	21
104	0x0d	13
105	0x0d	13
106	0x1f	31
107	0xf4	-12
108	0x17	23
109	0x13	19
110	0xf1	-15
111	0x09	9
112	0xf8	-8
113	0xe4	-28
114	0x16	22
115	0xe8	-24
116	0xdb	-37
117	0x07	7
118	0xe4	-28
119	0xf1	-15
120	0x1e	30
121	0xe3	-29
122	0x11	17
123	0x04	4
124	0x08	8
125	0x0c	12
126	0x07	7
127	0xf0	-16
128	0x06	6
129	0x24	36
130	0xe1	-31
131	0x0a	10
132	0x13	19
133	0x28	40
134	0x20	32
135	0xfc	-4
136	0x20	32
137	0x2b	43
138	0x3e	62
139	0xf2	-14
140	0x21	33
141	0xee	-18
142	0xef	-17
143	0x0c	12
144	0xed	-19
145	0x0b	11
146	0x34	52
147	0x15	21
148	0x08	8
149	0xfa	-6
150	0x21	33
151	0x0c	12
152	0xcc	-52
153	0x1a	26
154	0x14	20
155	0x2d	45
156	0x0d	13
157	0x17	23
158	0x37	55
159	0x01	1
160	0xf4	-12
161	0xc4	-60
162	0xe6	-26
163	0x10	16
164	0xd8	-40
165	0x03	3
166	0xfa	-6
167	0x2b	43
168	0xc2	-62
169	0xf7	-9
170	0x0c	12
171	0x0f	15
172	0x21	33
173	0x43	67
174	0x09	9
175	0x02	2
176	0xf0	-16
177	0x29	41
178	0x1a	26
179	0x01	1
180	0xe4	-28
181	0x44	68
182	0xeb	-21
183	0x1a	26
184	0xec	-20
185	0xfc	-4
186	0x0a	10
187	0xf0	-16
188	0xf7	-9
189	0xf4	-12
190	0xe1	-31
191	0x61	97
192	0x27	39
193	0x19	25
194	0x1a	26
195	0x30	48
196	0x22	34
197	0x32	50
198	0x20	32
199	0xed	-19
200	0x18	24
201	0xfe	-2
202	0x2e	46
203	0xf4	-12
204	0x18	24
205	0x12	18
206	0x1f	31
207	0x00	0
208	0x01	1
209	0x1c	28
210	0x13	19
211	0x2d	45
212	0xfc	-4
213	0x2f	47
214	0x4f	79
215	0xe4	-28
216	0x20	32
217	0x24	36
218	0x2d	45
219	0x0e	14
220	0x12	18
221	0x24	36
222	0x15	21
223	0x16	22
224	0xff	-1
225	0x15	21
226	0x18	24
227	0xfe	-2
228	0x17	23
229	0x17	23
230	0x23	35
231	0x0a	10
232	0x15	21
233	0xda	-38
234	0x3a	58
235	0x19	25
236	0x24	36
237	0x0f	15
238	0x0f	15
239	0xf0	-16
240	0xdb	-37
241	0x2c	44
242	0xfc	-4
243	0x22	34
244	0x1d	29
245	0xe9	-23
246	0x28	40
247	0x34	52
248	0xe8	-24
249	0xf8	-8
250	0x0d	13
251	0x28	40
252	0x11	17
253	0xff	-1
254	0x0f	15
255	0x3d	61

tfl.pseudo_qconst19 i1 [1, 3, 3, 336]
0	0xd6	-42
1	0x54	84
2	0x11	17
3	0x2d	45
4	0x16	22
5	0x37	55
6	0xf0	-16
7	0x24	36
8	0x00	0
9	0xea	-22
10	0xfd	-3
11	0x13	19
12	0x8f	-113
13	0x17	23
14	0x9a	-102
15	0x1b	27
16	0x0c	12
17	0x2d	45
18	0xef	-17
19	0xcd	-51
20	0x27	39
21	0x15	21
22	0x1f	31
23	0xa9	-87
24	0xf7	-9
25	0xce	-50
26	0x39	57
27	0x14	20
28	0x0a	10
29	0xec	-20
30	0xd1	-47
31	0xfc	-4
32	0x0a	10
33	0x0e	14
34	0x12	18
35	0xd1	-47
36	0xff	-1
37	0x0e	14
38	0x35	53
39	0xfe	-2
40	0xba	-70
41	0xfa	-6
42	0xed	-19
43	0xfd	-3
44	0xff	-1
45	0x1c	28
46	0xe0	-32
47	0xf7	-9
48	0x8c	-116
49	0x01	1
50	0x02	2
51	0x99	-103
52	0xf7	-9
53	0xb5	-75
54	0xe3	-29
55	0xe8	-24
56	0x10	16
57	0x06	6
58	0x1e	30
59	0xf6	-10
60	0x1b	27
61	0x0e	14
62	0x06	6
63	0x7f	127
64	0xbc	-68
65	0xa4	-92
66	0x17	23
67	0xfa	-6
68	0x16	22
69	0x12	18
70	0x0f	15
71	0x2f	47
72	0xe4	-28
73	0x18	24
74	0x1b	27
75	0xd6	-42
76	0x31	49
77	0x39	57
78	0x10	16
79	0x18	24
80	0x08	8
81	0x36	54
82	0x13	19
83	0x2e	46
84	0x05	5
85	0x93	-109
86	0xb0	-80
87	0x2b	43
88	0xf7	-9
89	0xfb	-5
90	0x39	57
91	0x10	16
92	0xcb	-53
93	0x08	8
94	0x5f	95
95	0xe8	-24
96	0x05	5
97	0x1c	28
98	0xf5	-11
99	0x7f	127
100	0x63	99
101	0xf8	-8
102	0x01	1
103	0x24	36
104	0x21	33
105	0xfc	-4
106	0xed	-19
107	0x1c	28
108	0xe3	-29
109	0x5c	92
110	0xda	-38
111	0x1d	29
112	0x16	22
113	0x81	-127
114	0xdb	-37
115	0xed	-19
116	0x0d	13
117	0x23	35
118	0xde	-34
119	0x33	51
120	0xec	-20
121	0xf6	-10
122	0xfc	-4
123	0x55	85
124	0x1e	30
125	0x01	1
126	0x9a	-102
127	0xeb	-21
128	0x8a	-118
129	0xed	-19
130	0xce	-50
131	0x1a	26
132	0xf4	-12
133	0x16	22
134	0x03	3
135	0xf9	-7
136	0x0b	11
137	0xf8	-8
138	0xee	-18
139	0x11	17
140	0xfc	-4
141	0x1c	28
142	0x9f	-97
143	0xff	-1
144	0xe3	-29
145	0xfa	-6
146	0x03	3
147	0xe1	-31
148	0x19	25
149	0xa6	-90
150	0x28	40
151	0x36	54
152	0x3f	63
153	0x38	56
154	0x08	8
155	0x13	19
156	0xec	-20
157	0x2e	46
158	0x10	16
159	0x19	25
160	0x0b	11
161	0xe5	-27
162	0x7f	127
163	0xf6	-10
164	0x4e	78
165	0xf4	-12
166	0x1f	31
167	0xf5	-11
168	0xf1	-15
169	0x2c	44
170	0xea	-22
171	0xe6	-26
172	0x14	20
173	0x28	40
174	0x17	23
175	0x1c	28
176	0xe3	-29
177	0x81	-127
178	0x10	16
179	0xf6	-10
180	0xea	-22
181	0x17	23
182	0x1a	26
183	0x14	20
184	0x18	24
185	0x14	20
186	0x0a	10
187	0xd9	-39
188	0x01	1
189	0xfb	-5
190	0x1a	26
191	0xef	-17
192	0xff	-1
193	0xf5	-11
194	0xe9	-23
195	0x16	22
196	0x16	22
197	0x23	35
198	0x23	35
199	0xdb	-37
200	0x18	24
201	0xce	-50
202	0xc9	-55
203	0x05	5
204	0x1b	27
205	0xfb	-5
206	0x84	-124
207	0x8e	-114
208	0x42	66
209	0x1a	26
210	0x81	-127
211	0x11	17
212	0xe8	-24
213	0x01	1
214	0x1e	30
215	0x09	9
216	0x1f	31
217	0x20	32
218	0xe9	-23
219	0x21	33
220	0x2c	44
221	0xf7	-9
222	0x09	9
223	0x0d	13
224	0x3b	59
225	0x4f	79
226	0x18	24
227	0x0c	12
228	0x35	53
229	0x27	39
230	0x24	36
231	0xd7	-41
232	0x1d	29
233	0xa6	-90
234	0x02	2
235	0xf5	-11
236	0x0b	11
237	0x0e	14
238	0x81	-127
239	0xe3	-29
240	0x0a	10
241	0x03	3
242	0x10	16
243	0x36	54
244	0x21	33
245	0x0f	15
246	0x45	69
247	0x0a	10
248	0x02	2
249	0xf5	-11
250	0x81	-127
251	0x92	-110
252	0x26	38
253	0x08	8
254	0xfc	-4
255	0x13	19

tfl.pseudo_qconst21 i1 [336, 1, 1, 56]
0	0x08	8
1	0xe7	-25
2	0xcb	-53
3	0x63	99
4	0xec	-20
5	0x99	-103
6	0x4a	74
7	0x1f	31
8	0xfa	-6
9	0xb3	-77
10	0xb8	-72
11	0x5d	93
12	0xba	-70
13	0x17	23
14	0x10	16
15	0x2b	43
16	0xd5	-43
17	0x81	-127
18	0x01	1
19	0x2c	44
20	0xd3	-45
21	0x0c	12
22	0x4b	75
23	0x01	1
24	0x20	32
25	0x08	8
26	0xdc	-36
27	0xe4	-28
28	0x40	64
29	0x6c	108
30	0x0e	14
31	0x0e	14
32	0xde	-34
33	0x17	23
34	0x1b	27
35	0xfe	-2
36	0xee	-18
37	0x26	38
38	0x2c	44
39	0x18	24
40	0x30	48
41	0xfd	-3
42	0xd0	-48
43	0xe8	-24
44	0x5e	94
45	0x2a	42
46	0xfa	-6
47	0x30	48
48	0x07	7
49	0xfa	-6
50	0x95	-107
51	0xc7	-57
52	0x1a	26
53	0x16	22
54	0x23	35
55	0x9a	-102
56	0xcf	-49
57	0x03	3
58	0x07	7
59	0xe8	-24
60	0x19	25
61	0x02	2
62	0xb6	-74
63	0xe6	-26
64	0x16	22
65	0x2c	44
66	0x14	20
67	0xf9	-7
68	0x02	2
69	0x12	18
70	0x46	70
71	0xeb	-21
72	0xeb	-21
73	0xed	-19
74	0x46	70
75	0x04	4
76	0xf3	-13
77	0x14	20
78	0x7f	127
79	0x03	3
80	0x26	38
81	0x19	25
82	0x23	35
83	0xf4	-12
84	0x07	7
85	0xea	-22
86	0xe5	-27
87	0xf9	-7
88	0x04	4
89	0x05	5
90	0x0d	13
91	0xc4	-60
92	0x08	8
93	0xf9	-7
94	0x02	2
95	0xfd	-3
96	0xff	-1
97	0x0b	11
98	0x21	33
99	0xfd	-3
100	0x31	49
101	0x20	32
102	0x10	16
103	0xe5	-27
104	0xf6	-10
105	0xff	-1
106	0xef	-17
107	0x16	22
108	0x1c	28
109	0xe4	-28
110	0xe0	-32
111	0xed	-19
112	0x1a	26
113	0xd4	-44
114	0x00	0
115	0xb7	-73
116	0x1d	29
117	0x01	1
118	0x81	-127
119	0x89	-119
120	0x06	6
121	0x0b	11
122	0xde	-34
123	0x14	20
124	0x38	56
125	0x6a	106
126	0xed	-19
127	0x73	115
128	0xfb	-5
129	0x03	3
130	0xc2	-62
131	0x3a	58
132	0x15	21
133	0xe8	-24
134	0xd7	-41
135	0x7e	126
136	0x2b	43
137	0x25	37
138	0x9e	-98
139	0x1b	27
140	0x65	101
141	0xfa	-6
142	0xf4	-12
143	0x11	17
144	0x71	113
145	0xe4	-28
146	0x23	35
147	0xdb	-37
148	0xa9	-87
149	0xe6	-26
150	0x53	83
151	0xf0	-16
152	0x08	8
153	0x3c	60
154	0x1d	29
155	0x4b	75
156	0xfe	-2
157	0x2e	46
158	0x1d	29
159	0xac	-84
160	0x06	6
161	0xd3	-45
162	0x99	-103
163	0xb2	-78
164	0x28	40
165	0xd4	-44
166	0xec	-20
167	0x2c	44
168	0x5b	91
169	0xf2	-14
170	0xeb	-21
171	0xf2	-14
172	0x3e	62
173	0xd4	-44
174	0x36	54
175	0x14	20
176	0x08	8
177	0x44	68
178	0x21	33
179	0x05	5
180	0xe5	-27
181	0x2a	42
182	0xe4	-28
183	0x12	18
184	0x0c	12
185	0x26	38
186	0x10	16
187	0xed	-19
188	0xf1	-15
189	0xff	-1
190	0x11	17
191	0x20	32
192	0x01	1
193	0xec	-20
194	0xdb	-37
195	0x38	56
196	0x05	5
197	0xae	-82
198	0xfc	-4
199	0xfe	-2
200	0x07	7
201	0x02	2
202	0x04	4
203	0xf8	-8
204	0x29	41
205	0x2b	43
206	0xe7	-25
207	0x08	8
208	0x81	-127
209	0xfa	-6
210	0x09	9
211	0x1f	31
212	0xeb	-21
213	0x06	6
214	0xf3	-13
215	0x17	23
216	0x09	9
217	0x33	51
218	0x2c	44
219	0x0d	13
220	0x30	48
221	0xef	-17
222	0xff	-1
223	0xe5	-27
224	0x01	1
225	0x09	9
226	0xe0	-32
227	0xb8	-72
228	0xee	-18
229	0xde	-34
230	0x40	64
231	0x36	54
232	0x40	64
233	0x81	-127
234	0xe9	-23
235	0xd1	-47
236	0x0c	12
237	0xfc	-4
238	0xa8	-88
239	0x13	19
240	0xf4	-12
241	0xf8	-8
242	0x09	9
243	0x2b	43
244	0x1f	31
245	0xee	-18
246	0xc8	-56
247	0xf9	-7
248	0x24	36
249	0x13	19
250	0x16	22
251	0xef	-17
252	0xc5	-59
253	0x10	16
254	0xfe	-2
255	0x37	55

tfl.pseudo_qconst23 i1 [56, 1, 1, 192]
0	0xe2	-30
1	0x5c	92
2	0x0a	10
3	0xf0	-16
4	0x07	7
5	0x0c	12
6	0xd8	-40
7	0x10	16
8	0xf2	-14
9	0xf4	-12
10	0x06	6
11	0x23	35
12	0xd2	-46
13	0x0e	14
14	0xd3	-45
15	0x27	39
16	0xfa	-6
17	0xe7	-25
18	0x49	73
19	0x0f	15
20	0xff	-1
21	0x29	41
22	0x12	18
23	0xde	-34
24	0xff	-1
25	0xf2	-14
26	0x2c	44
27	0x34	52
28	0xda	-38
29	0x03	3
30	0xfc	-4
31	0x07	7
32	0x10	16
33	0x19	25
34	0x25	37
35	0x0d	13
36	0xe9	-23
37	0x0d	13
38	0x06	6
39	0xf8	-8
40	0xef	-17
41	0xfb	-5
42	0xf0	-16
43	0x01	1
44	0x1d	29
45	0x1f	31
46	0x1f	31
47	0x16	22
48	0x1f	31
49	0xe5	-27
50	0xdd	-35
51	0xe5	-27
52	0xf7	-9
53	0xf3	-13
54	0x16	22
55	0x05	5
56	0x04	4
57	0x32	50
58	0x09	9
59	0x04	4
60	0xfa	-6
61	0x03	3
62	0xb7	-73
63	0x19	25
64	0x01	1
65	0x0b	11
66	0x0f	15
67	0x28	40
68	0x02	2
69	0x4d	77
70	0x25	37
71	0x3b	59
72	0xd8	-40
73	0xc9	-55
74	0xf2	-14
75	0x3c	60
76	0x37	55
77	0x12	18
78	0x03	3
79	0x07	7
80	0xfc	-4
81	0xe7	-25
82	0x1a	26
83	0xdb	-37
84	0x47	71
85	0xfc	-4
86	0x01	1
87	0x12	18
88	0xf5	-11
89	0xff	-1
90	0xf1	-15
91	0x20	32
92	0x1e	30
93	0x27	39
94	0x0a	10
95	0x07	7
96	0x09	9
97	0x25	37
98	0x40	64
99	0xc2	-62
100	0x06	6
101	0xfa	-6
102	0xf8	-8
103	0x1d	29
104	0x28	40
105	0xf9	-7
106	0xf4	-12
107	0xe8	-24
108	0x2e	46
109	0xde	-34
110	0x0f	15
111	0x09	9
112	0x21	33
113	0xf2	-14
114	0xeb	-21
115	0xb8	-72
116	0x2a	42
117	0xe1	-31
118	0xda	-38
119	0x3f	63
120	0xaf	-81
121	0x35	53
122	0x1c	28
123	0xbf	-65
124	0x81	-127
125	0x10	16
126	0x14	20
127	0x09	9
128	0xed	-19
129	0xfe	-2
130	0xea	-22
131	0xe5	-27
132	0x16	22
133	0x05	5
134	0xf0	-16
135	0x36	54
136	0x23	35
137	0xfc	-4
138	0xf1	-15
139	0x1f	31
140	0x07	7
141	0x0e	14
142	0x28	40
143	0xec	-20
144	0xd5	-43
145	0xf2	-14
146	0x14	20
147	0xf5	-11
148	0xed	-19
149	0x12	18
150	0xce	-50
151	0x0b	11
152	0x3a	58
153	0xf6	-10
154	0x04	4
155	0x22	34
156	0x3d	61
157	0xed	-19
158	0x39	57
159	0xe7	-25
160	0x47	71
161	0xee	-18
162	0x09	9
163	0x19	25
164	0x02	2
165	0xd9	-39
166	0x25	37
167	0x0b	11
168	0xc8	-56
169	0xb9	-71
170	0x18	24
171	0xef	-17
172	0x5c	92
173	0xf4	-12
174	0x1c	28
175	0x40	64
176	0xf0	-16
177	0xef	-17
178	0x06	6
179	0x0a	10
180	0xda	-38
181	0xfe	-2
182	0x26	38
183	0x2d	45
184	0xf5	-11
185	0xfe	-2
186	0xef	-17
187	0x01	1
188	0xb9	-71
189	0x08	8
190	0xfc	-4
191	0xf3	-13
192	0xf9	-7
193	0x20	32
194	0x47	71
195	0x0a	10
196	0xee	-18
197	0xfd	-3
198	0xbf	-65
199	0x34	52
200	0xf6	-10
201	0xe7	-25
202	0xb5	-75
203	0x13	19
204	0x0e	14
205	0xea	-22
206	0xb5	-75
207	0xf4	-12
208	0x39	57
209	0xd9	-39
210	0xc7	-57
211	0xe6	-26
212	0x01	1
213	0x1e	30
214	0x0a	10
215	0xf4	-12
216	0xfa	-6
217	0x02	2
218	0xf8	-8
219	0x31	49
220	0xfc	-4
221	0xfb	-5
222	0xd6	-42
223	0x31	49
224	0xea	-22
225	0xe8	-24
226	0x45	69
227	0xdd	-35
228	0x30	48
229	0xc2	-62
230	0x62	98
231	0x20	32
232	0xd3	-45
233	0x81	-127
234	0x3e	62
235	0xff	-1
236	0xb0	-80
237	0x2a	42
238	0xc2	-62
239	0x1b	27
240	0xfd	-3
241	0xda	-38
242	0x92	-110
243	0x0e	14
244	0x10	16
245	0xc9	-55
246	0xea	-22
247	0x93	-109
248	0x09	9
249	0x11	17
250	0xb1	-79
251	0x22	34
252	0xd8	-40
253	0xda	-38
254	0xf2	-14
255	0xd0	-48

tfl.pseudo_qconst25 i1 [1, 3, 3, 192]
0	0x52	82
1	0x4a	74
2	0xc3	-61
3	0xc7	-57
4	0x4e	78
5	0xab	-85
6	0x46	70
7	0x53	83
8	0xb5	-75
9	0xa6	-90
10	0xb5	-75
11	0xbc	-68
12	0x46	70
13	0x45	69
14	0xc2	-62
15	0xd0	-48
16	0x4d	77
17	0x9a	-102
18	0xbf	-65
19	0x49	73
20	0x4a	74
21	0x6d	109
22	0xbc	-68
23	0x3d	61
24	0x54	84
25	0x39	57
26	0x3b	59
27	0x48	72
28	0xbe	-66
29	0xc3	-61
30	0xe9	-23
31	0x49	73
32	0x50	80
33	0x62	98
34	0x9b	-101
35	0x55	85
36	0x4f	79
37	0x33	51
38	0x4f	79
39	0xbf	-65
40	0xbb	-69
41	0xc2	-62
42	0xaf	-81
43	0x31	49
44	0x48	72
45	0x49	73
46	0x3b	59
47	0x4a	74
48	0xa9	-87
49	0xaf	-81
50	0x54	84
51	0xc2	-62
52	0x42	66
53	0x68	104
54	0xc1	-63
55	0x5d	93
56	0x4a	74
57	0x9b	-101
58	0x36	54
59	0xa1	-95
60	0xb9	-71
61	0x6d	109
62	0x3d	61
63	0x42	66
64	0xa8	-88
65	0xc3	-61
66	0x49	73
67	0x46	70
68	0xb1	-79
69	0xa9	-87
70	0x50	80
71	0xbb	-69
72	0x65	101
73	0x4c	76
74	0x5b	91
75	0xbd	-67
76	0x40	64
77	0x49	73
78	0x9c	-100
79	0x44	68
80	0x55	85
81	0xc0	-64
82	0x50	80
83	0x6a	106
84	0x51	81
85	0xbb	-69
86	0x58	88
87	0x48	72
88	0x54	84
89	0x90	-112
90	0x4a	74
91	0x4c	76
92	0x46	70
93	0x46	70
94	0x39	57
95	0xb9	-71
96	0xba	-70
97	0x66	102
98	0x64	100
99	0x4c	76
100	0x48	72
101	0xb9	-71
102	0xc5	-59
103	0x4c	76
104	0x4b	75
105	0x4c	76
106	0x50	80
107	0x46	70
108	0xc6	-58
109	0x68	104
110	0x3b	59
111	0x4e	78
112	0xb2	-78
113	0x4d	77
114	0x3e	62
115	0xcb	-53
116	0xc2	-62
117	0xb4	-76
118	0x4e	78
119	0x47	71
120	0x3d	61
121	0xc0	-64
122	0x3a	58
123	0x43	67
124	0xc3	-61
125	0xae	-82
126	0xa3	-93
127	0x47	71
128	0x3a	58
129	0x4c	76
130	0x4a	74
131	0xb3	-77
132	0xa9	-87
133	0x40	64
134	0x53	83
135	0xc8	-56
136	0xf0	-16
137	0xc4	-60
138	0xcb	-53
139	0x49	73
140	0x40	64
141	0xac	-84
142	0xa2	-94
143	0x3c	60
144	0xba	-70
145	0x48	72
146	0xbc	-68
147	0x44	68
148	0xba	-70
149	0xaa	-86
150	0x39	57
151	0x40	64
152	0x8d	-115
153	0x5d	93
154	0xc5	-59
155	0xb3	-77
156	0x37	55
157	0x58	88
158	0xc9	-55
159	0xb8	-72
160	0x4d	77
161	0x9d	-99
162	0x4b	75
163	0x8e	-114
164	0x5c	92
165	0x4b	75
166	0xb6	-74
167	0x3f	63
168	0xbe	-66
169	0xd4	-44
170	0xbb	-69
171	0x60	96
172	0x40	64
173	0xbd	-67
174	0x47	71
175	0x39	57
176	0x4a	74
177	0x50	80
178	0xc6	-58
179	0x53	83
180	0x8a	-118
181	0x44	68
182	0x56	86
183	0x4c	76
184	0xea	-22
185	0x4a	74
186	0x5a	90
187	0x31	49
188	0x44	68
189	0x47	71
190	0xb7	-73
191	0x44	68
192	0x65	101
193	0x5b	91
194	0xab	-85
195	0xab	-85
196	0x64	100
197	0x97	-105
198	0x54	84
199	0x6d	109
200	0xa0	-96
201	0x8e	-114
202	0x9f	-97
203	0xa1	-95
204	0x5c	92
205	0x5f	95
206	0xae	-82
207	0xbb	-69
208	0x59	89
209	0x81	-127
210	0xa3	-93
211	0x59	89
212	0x59	89
213	0xf2	-14
214	0x9f	-97
215	0x53	83
216	0x62	98
217	0x4a	74
218	0x51	81
219	0x5e	94
220	0xaa	-86
221	0xac	-84
222	0xfb	-5
223	0x61	97
224	0x60	96
225	0xd8	-40
226	0x81	-127
227	0x6e	110
228	0x63	99
229	0x42	66
230	0x5d	93
231	0xa5	-91
232	0xa8	-88
233	0xb1	-79
234	0x9f	-97
235	0x41	65
236	0x5c	92
237	0x64	100
238	0x4f	79
239	0x58	88
240	0x4a	74
241	0x98	-104
242	0x62	98
243	0xad	-83
244	0x59	89
245	0x7f	127
246	0xae	-82
247	0x76	118
248	0x5e	94
249	0x17	23
250	0x51	81
251	0x95	-107
252	0xa6	-90
253	0x7f	127
254	0x54	84
255	0x51	81

tfl.pseudo_qconst27 i1 [192, 1, 1, 32]
0	0xf4	-12
1	0xcd	-51
2	0x11	17
3	0x0f	15
4	0xf5	-11
5	0xda	-38
6	0xf1	-15
7	0x40	64
8	0xe1	-31
9	0xec	-20
10	0x16	22
11	0x10	16
12	0x81	-127
13	0xf4	-12
14	0x05	5
15	0xf1	-15
16	0xe1	-31
17	0xb6	-74
18	0xe0	-32
19	0x54	84
20	0xec	-20
21	0x15	21
22	0xef	-17
23	0xdf	-33
24	0x0f	15
25	0xd9	-39
26	0xdc	-36
27	0xd4	-44
28	0xf8	-8
29	0x87	-121
30	0x04	4
31	0x08	8
32	0x02	2
33	0xe2	-30
34	0xe6	-26
35	0x0e	14
36	0xca	-54
37	0xf5	-11
38	0x07	7
39	0x1e	30
40	0x10	16
41	0xe6	-26
42	0x81	-127
43	0xf3	-13
44	0x10	16
45	0x22	34
46	0xfe	-2
47	0x13	19
48	0xda	-38
49	0xf3	-13
50	0x12	18
51	0xc0	-64
52	0xd8	-40
53	0x1e	30
54	0xe3	-29
55	0xf5	-11
56	0x13	19
57	0xcf	-49
58	0xdb	-37
59	0x23	35
60	0xce	-50
61	0xfa	-6
62	0xff	-1
63	0xf0	-16
64	0x36	54
65	0xe9	-23
66	0x37	55
67	0xa6	-90
68	0x53	83
69	0xff	-1
70	0xfc	-4
71	0x00	0
72	0x16	22
73	0xe3	-29
74	0x20	32
75	0x17	23
76	0x0a	10
77	0xfb	-5
78	0x66	102
79	0x16	22
80	0xd4	-44
81	0xc6	-58
82	0xf9	-7
83	0xd7	-41
84	0xee	-18
85	0x10	16
86	0xfc	-4
87	0xe7	-25
88	0xee	-18
89	0x2e	46
90	0x04	4
91	0x9b	-101
92	0x10	16
93	0x03	3
94	0x1a	26
95	0x7f	127
96	0xe7	-25
97	0x81	-127
98	0x02	2
99	0xf3	-13
100	0xef	-17
101	0xf4	-12
102	0xbf	-65
103	0xf5	-11
104	0xfc	-4
105	0xfa	-6
106	0xea	-22
107	0x04	4
108	0xff	-1
109	0x03	3
110	0xf1	-15
111	0xd1	-47
112	0xe4	-28
113	0xf4	-12
114	0xfd	-3
115	0xfd	-3
116	0xd8	-40
117	0xff	-1
118	0x06	6
119	0xfa	-6
120	0x09	9
121	0x15	21
122	0x06	6
123	0x00	0
124	0x18	24
125	0x36	54
126	0x1a	26
127	0x02	2
128	0x81	-127
129	0xf3	-13
130	0xe4	-28
131	0xf2	-14
132	0xba	-70
133	0xd9	-39
134	0x67	103
135	0xd2	-46
136	0x0a	10
137	0xd8	-40
138	0xd6	-42
139	0x18	24
140	0x26	38
141	0x1b	27
142	0xfd	-3
143	0xfb	-5
144	0xbc	-68
145	0xcd	-51
146	0x1f	31
147	0xd7	-41
148	0xf9	-7
149	0x03	3
150	0x13	19
151	0xf0	-16
152	0x2b	43
153	0x1f	31
154	0x03	3
155	0x01	1
156	0xe7	-25
157	0x14	20
158	0x43	67
159	0xf9	-7
160	0x48	72
161	0x08	8
162	0xf4	-12
163	0xd0	-48
164	0x3d	61
165	0x3b	59
166	0x04	4
167	0x0b	11
168	0x7f	127
169	0x03	3
170	0x63	99
171	0x20	32
172	0x0e	14
173	0x2b	43
174	0xdc	-36
175	0xdc	-36
176	0xd1	-47
177	0x2a	42
178	0xf5	-11
179	0xbf	-65
180	0xd5	-43
181	0xfc	-4
182	0xcc	-52
183	0xb8	-72
184	0x4b	75
185	0x0b	11
186	0xc8	-56
187	0x00	0
188	0x15	21
189	0xeb	-21
190	0x38	56
191	0x1c	28
192	0xff	-1
193	0xf4	-12
194	0x08	8
195	0xf4	-12
196	0xfa	-6
197	0x17	23
198	0xda	-38
199	0xe1	-31
200	0xd2	-46
201	0x44	68
202	0xfb	-5
203	0xff	-1
204	0xfe	-2
205	0x93	-109
206	0x05	5
207	0xf9	-7
208	0x3e	62
209	0xf3	-13
210	0x0b	11
211	0x0f	15
212	0x1c	28
213	0x00	0
214	0xe4	-28
215	0x3a	58
216	0xd5	-43
217	0xe5	-27
218	0x47	71
219	0x36	54
220	0xd5	-43
221	0xf0	-16
222	0x81	-127
223	0xff	-1
224	0x40	64
225	0xb6	-74
226	0x33	51
227	0x05	5
228	0x04	4
229	0xec	-20
230	0x5c	92
231	0xff	-1
232	0xf3	-13
233	0x03	3
234	0x20	32
235	0x0c	12
236	0xf0	-16
237	0x1d	29
238	0x19	25
239	0x35	53
240	0x82	-126
241	0x5e	94
242	0x05	5
243	0x01	1
244	0x0c	12
245	0x09	9
246	0xd9	-39
247	0x23	35
248	0x02	2
249	0x26	38
250	0x0d	13
251	0xe9	-23
252	0x7f	127
253	0xde	-34
254	0x1b	27
255	0x39	57

tfl.pseudo_qconst29 i1 [32, 1, 1, 192]
0	0xd6	-42
1	0x09	9
2	0x10	16
3	0xf4	-12
4	0xf8	-8
5	0x23	35
6	0xe4	-28
7	0xa1	-95
8	0x0e	14
9	0xf2	-14
10	0x27	39
11	0xf3	-13
12	0xdf	-33
13	0xf5	-11
14	0xf6	-10
15	0x06	6
16	0x0e	14
17	0xf2	-14
18	0xfe	-2
19	0x22	34
20	0xec	-20
21	0xc7	-57
22	0x00	0
23	0x00	0
24	0x11	17
25	0xf3	-13
26	0xeb	-21
27	0xf0	-16
28	0x17	23
29	0xd0	-48
30	0x09	9
31	0x0b	11
32	0x01	1
33	0x0d	13
34	0xf7	-9
35	0x0c	12
36	0x03	3
37	0x49	73
38	0x1f	31
39	0x01	1
40	0xf6	-10
41	0x04	4
42	0xf4	-12
43	0xc2	-62
44	0x1c	28
45	0x23	35
46	0x0b	11
47	0xed	-19
48	0xfe	-2
49	0x10	16
50	0xcf	-49
51	0xe6	-26
52	0xed	-19
53	0xf3	-13
54	0xf6	-10
55	0x2d	45
56	0xfe	-2
57	0xf6	-10
58	0xfe	-2
59	0x1f	31
60	0x0e	14
61	0xe8	-24
62	0xda	-38
63	0xc5	-59
64	0x02	2
65	0x06	6
66	0xd1	-47
67	0xce	-50
68	0xd9	-39
69	0xec	-20
70	0xc9	-55
71	0x09	9
72	0x01	1
73	0x27	39
74	0xf5	-11
75	0x16	22
76	0x01	1
77	0xee	-18
78	0x2b	43
79	0xcf	-49
80	0xe0	-32
81	0xe0	-32
82	0x22	34
83	0xfd	-3
84	0x12	18
85	0xb9	-71
86	0xf7	-9
87	0xff	-1
88	0xfb	-5
89	0xf2	-14
90	0x0f	15
91	0xef	-17
92	0x1c	28
93	0x1c	28
94	0x42	66
95	0x04	4
96	0xe6	-26
97	0xf0	-16
98	0xf7	-9
99	0xe1	-31
100	0xf9	-7
101	0xf6	-10
102	0xa3	-93
103	0xf4	-12
104	0x13	19
105	0x22	34
106	0x0d	13
107	0x1d	29
108	0x2b	43
109	0x2c	44
110	0xea	-22
111	0xf9	-7
112	0x0b	11
113	0xfb	-5
114	0xff	-1
115	0xed	-19
116	0xf8	-8
117	0xda	-38
118	0x01	1
119	0x22	34
120	0x51	81
121	0x07	7
122	0xd4	-44
123	0x00	0
124	0xf5	-11
125	0xdb	-37
126	0xed	-19
127	0xe9	-23
128	0xb5	-75
129	0x05	5
130	0x0b	11
131	0x19	25
132	0x00	0
133	0xdf	-33
134	0x07	7
135	0x16	22
136	0xef	-17
137	0x00	0
138	0xce	-50
139	0x11	17
140	0x0c	12
141	0x26	38
142	0xc3	-61
143	0xe7	-25
144	0x0a	10
145	0x32	50
146	0x11	17
147	0xe2	-30
148	0xe4	-28
149	0xb5	-75
150	0xfa	-6
151	0x19	25
152	0x17	23
153	0x6a	106
154	0x11	17
155	0x14	20
156	0xdb	-37
157	0x0d	13
158	0xdc	-36
159	0x17	23
160	0x18	24
161	0xef	-17
162	0x7f	127
163	0x15	21
164	0xfe	-2
165	0x1c	28
166	0xfd	-3
167	0xf2	-14
168	0x19	25
169	0x1b	27
170	0x10	16
171	0x15	21
172	0x30	48
173	0xf6	-10
174	0xe7	-25
175	0x05	5
176	0xe1	-31
177	0x04	4
178	0xd0	-48
179	0xef	-17
180	0xe8	-24
181	0x0e	14
182	0x15	21
183	0x0b	11
184	0xfc	-4
185	0xf4	-12
186	0xf4	-12
187	0xf2	-14
188	0xe7	-25
189	0x03	3
190	0x2b	43
191	0x56	86
192	0x03	3
193	0xf3	-13
194	0x12	18
195	0x10	16
196	0xf6	-10
197	0xfc	-4
198	0x18	24
199	0x19	25
200	0x8c	-116
201	0x04	4
202	0xfc	-4
203	0x0f	15
204	0x0b	11
205	0xff	-1
206	0xf3	-13
207	0xdd	-35
208	0xa4	-92
209	0xe3	-29
210	0x06	6
211	0x18	24
212	0x01	1
213	0xfe	-2
214	0xfe	-2
215	0xfc	-4
216	0xf7	-9
217	0x02	2
218	0x0c	12
219	0x03	3
220	0x11	17
221	0x25	37
222	0x01	1
223	0x14	20
224	0xf7	-9
225	0xfb	-5
226	0x03	3
227	0x0b	11
228	0xf9	-7
229	0xc5	-59
230	0xfe	-2
231	0x19	25
232	0xe5	-27
233	0x00	0
234	0xfb	-5
235	0xeb	-21
236	0xd8	-40
237	0xee	-18
238	0xfc	-4
239	0x57	87
240	0x11	17
241	0x01	1
242	0x18	24
243	0xd9	-39
244	0xff	-1
245	0xf9	-7
246	0xfc	-4
247	0x0c	12
248	0x0b	11
249	0x06	6
250	0xef	-17
251	0x03	3
252	0xff	-1
253	0x2a	42
254	0x05	5
255	0xc5	-59

tfl.pseudo_qconst31 i1 [1, 3, 3, 192]
0	0x44	68
1	0x7f	127
2	0x09	9
3	0x26	38
4	0xe7	-25
5	0xfd	-3
6	0xfc	-4
7	0xb0	-80
8	0xfe	-2
9	0xf1	-15
10	0x0a	10
11	0x21	33
12	0x37	55
13	0xf5	-11
14	0x07	7
15	0xa6	-90
16	0x49	73
17	0x0e	14
18	0x0a	10
19	0x05	5
20	0xf2	-14
21	0x34	52
22	0x15	21
23	0x74	116
24	0xe9	-23
25	0xeb	-21
26	0x11	17
27	0xe8	-24
28	0x19	25
29	0x12	18
30	0x7a	122
31	0xaa	-86
32	0xd2	-46
33	0x0a	10
34	0xd1	-47
35	0xeb	-21
36	0xec	-20
37	0xf7	-9
38	0x83	-125
39	0x22	34
40	0x98	-104
41	0x2f	47
42	0xf0	-16
43	0x83	-125
44	0x19	25
45	0x3e	62
46	0xb9	-71
47	0xed	-19
48	0x1c	28
49	0x1c	28
50	0xfa	-6
51	0xec	-20
52	0xf3	-13
53	0x30	48
54	0x0e	14
55	0xd0	-48
56	0xee	-18
57	0x49	73
58	0x0e	14
59	0xe2	-30
60	0xd7	-41
61	0xf1	-15
62	0xff	-1
63	0xdf	-33
64	0x3e	62
65	0xc4	-60
66	0x16	22
67	0x17	23
68	0xef	-17
69	0xb5	-75
70	0x31	49
71	0xfe	-2
72	0xea	-22
73	0xcf	-49
74	0xff	-1
75	0x18	24
76	0x03	3
77	0x0e	14
78	0x90	-112
79	0xf2	-14
80	0x13	19
81	0xec	-20
82	0xf5	-11
83	0x06	6
84	0x1c	28
85	0x2a	42
86	0xf6	-10
87	0xec	-20
88	0x20	32
89	0x42	66
90	0xa5	-91
91	0x41	65
92	0x53	83
93	0x2a	42
94	0xe5	-27
95	0xdb	-37
96	0x32	50
97	0xdc	-36
98	0xd0	-48
99	0x14	20
100	0x10	16
101	0x0c	12
102	0x0d	13
103	0xcf	-49
104	0x2d	45
105	0xea	-22
106	0xf7	-9
107	0x22	34
108	0xf5	-11
109	0x20	32
110	0xf7	-9
111	0x03	3
112	0x0d	13
113	0x10	16
114	0x21	33
115	0xd6	-42
116	0x95	-107
117	0xe1	-31
118	0x81	-127
119	0x08	8
120	0xe7	-25
121	0x0e	14
122	0xe7	-25
123	0x62	98
124	0xdd	-35
125	0xd8	-40
126	0x36	54
127	0xa3	-93
128	0x2b	43
129	0xf5	-11
130	0xe9	-23
131	0x30	48
132	0x2e	46
133	0xfc	-4
134	0x09	9
135	0x22	34
136	0xd4	-44
137	0x2a	42
138	0x13	19
139	0xbe	-66
140	0x7f	127
141	0xeb	-21
142	0xd4	-44
143	0x3a	58
144	0xe7	-25
145	0x09	9
146	0xcd	-51
147	0x18	24
148	0x35	53
149	0x0b	11
150	0x2d	45
151	0x15	21
152	0x8e	-114
153	0x01	1
154	0xfb	-5
155	0x0f	15
156	0x20	32
157	0x0d	13
158	0xfd	-3
159	0x04	4
160	0x0a	10
161	0xc2	-62
162	0x1c	28
163	0x33	51
164	0xd8	-40
165	0xed	-19
166	0x07	7
167	0x03	3
168	0x4e	78
169	0x1c	28
170	0x15	21
171	0xac	-84
172	0xfb	-5
173	0x43	67
174	0xcc	-52
175	0x03	3
176	0x20	32
177	0xef	-17
178	0x1e	30
179	0xd1	-47
180	0x08	8
181	0x40	64
182	0x1b	27
183	0xf4	-12
184	0xf4	-12
185	0x0e	14
186	0x0b	11
187	0x81	-127
188	0xfd	-3
189	0x29	41
190	0x0b	11
191	0xd2	-46
192	0x7d	125
193	0xfd	-3
194	0x10	16
195	0x81	-127
196	0xbd	-67
197	0xda	-38
198	0x03	3
199	0x87	-121
200	0x26	38
201	0x25	37
202	0x82	-126
203	0x10	16
204	0x7b	123
205	0x17	23
206	0x18	24
207	0x5c	92
208	0x8d	-115
209	0x04	4
210	0xfe	-2
211	0xcf	-49
212	0xff	-1
213	0x4d	77
214	0xf9	-7
215	0x7e	126
216	0x7c	124
217	0xf1	-15
218	0x1f	31
219	0x15	21
220	0x18	24
221	0x15	21
222	0x7f	127
223	0x81	-127
224	0x17	23
225	0x7f	127
226	0x81	-127
227	0x46	70
228	0x13	19
229	0xe3	-29
230	0xce	-50
231	0xe1	-31
232	0xa0	-96
233	0xe6	-26
234	0xb5	-75
235	0x15	21
236	0x4f	79
237	0xad	-83
238	0x1c	28
239	0xd4	-44
240	0x14	20
241	0x26	38
242	0x7f	127
243	0x36	54
244	0xe8	-24
245	0x7f	127
246	0x40	64
247	0x98	-104
248	0xc6	-58
249	0x4f	79
250	0xff	-1
251	0xd3	-45
252	0xa3	-93
253	0x1a	26
254	0x34	52
255	0x9d	-99
